LLMs_from_Sratch/practice/model.pth (torch, 943293 bytes, 6 tensors)

model.1.weight f4 [256, 784]
-0.0024276944 0.029726459 0.051172614 0.004402909 0.0038569325 0.062067457 0.015618765 -0.029539017
-0.021213673 -0.09053885 -0.1485716 0.10945063 0.46791318 0.22582035 0.23556894 0.39898235
0.3156873 -0.13263682 -0.11214766 -0.0130432565 0.021776158 -0.0036588386 0.007815375 0.026884569
0.062107425 0.0078706015 0.0234851 0.03473527 0.0013062028 0.028530376 -0.00378272 0.004716797
0.07556969 7.838007e-05 -0.031709887 -0.052788187 -0.17904891 -0.5014463 -0.44557846 -0.22611889
0.13139766 0.20642063 0.22643586 0.2637713 -0.03618495 -0.3175643 -0.4522653 -0.30422875
-0.1596723 -0.08723083 -0.05084802 0.010150122 -0.002514862 0.010374124 0.021461342 -0.0012128715
0.017706951 -0.010333888 -0.02366804 0.063254416 0.034911238 -0.020589545 -0.066713125 -0.02210517
-0.07965063 0.012149192 0.21665564 -0.012289835 -0.0046061645 0.17354229 0.30798763 0.15102479
0.07200976 0.17261808 0.11180096 0.009416552 -0.04736283 -0.039701995 -0.073837586 0.005343335
0.0132167265 0.038371485 0.02612936 -0.008855813 -0.016234156 -0.009251102 0.011336433 0.030872393
0.04459363 -0.039238498 0.20498972 0.26931077 0.22768751 -0.030488255 -0.07257676 -0.050997674
0.037896328 0.29663098 0.273549 0.2147076 0.1218001 0.023021417 -0.09044528 0.16761279
0.28731492 0.23293547 0.042444028 0.0029949497 0.043731567 0.021298079 0.019574702 0.014469464
0.012087556 -0.0005196947 0.017761277 0.020012172 0.0044553424 -0.03141741 0.28460178 0.18000524
0.10457259 -0.09668608 -0.0038762544 0.062410627 0.09827093 0.0808225 0.14784966 0.17461948
0.035036772 -0.03764422 -0.08924481 -0.10337984 0.069232084 0.3955929 0.117853425 -0.08030439
0.045311257 0.016540442 -0.013645201 0.04760126 0.033224903 0.021186536 0.0059443666 0.04064293
-0.069900624 -0.07026227 0.17229676 0.04144554 -0.095733136 -0.058196284 -0.08188723 0.028961353
-0.06162786 0.04304543 -0.08976365 -0.0476545 -0.016196491 -0.102660134 -0.123062685 -0.08014442
-0.07635747 0.22753698 0.16850454 -0.080459476 0.019860493 0.03600526 0.05043427 0.05891529
0.029986091 -0.011013195 0.047516916 -0.016252257 -0.0465931 -0.09057647 0.12942357 0.050654564
0.098593205 0.075108655 0.060844515 -0.0171189 0.0104384115 0.030641152 -0.06842161 -0.06329143
-0.10853136 0.06151337 0.06511616 0.048220024 -0.020567058 0.18200137 0.12572625 -0.06705307
0.0072126216 0.032440905 0.0040492713 -0.015652837 -0.008558264 -0.017485337 0.032332912 0.04036892
-0.033381112 -0.017174197 0.08915328 0.16772088 0.12563762 -0.021724533 -0.08364835 0.06442283
-0.05206456 -0.052933417 0.038523298 0.012748447 -0.03944351 0.06597521 -0.0082740355 0.03123966
0.04563989 0.0039189924 0.1094483 0.075490475 0.049382772 0.006530119 0.0048156073 -0.018944904
-0.026551308 0.03053211 0.0364024 0.04881295 -0.043436393 -0.015451074 0.123200305 0.2620115
0.006221053 0.032743204 -0.07824236 -0.032495167 0.014365714 -0.009255256 -0.009077201 0.038104713
-0.052097704 -0.04667297 -0.064592205 -0.05570807 0.06473908 0.022062058 0.07759459 0.05105741
0.040891014 0.014866032 0.028395053 -0.00096040836 0.010120396 -0.0140079595 0.08239811 0.040501885
00000000: f419 1fbb e784 f33c 609a 513d 4746 903b
00000010: 97c4 7c3b 723a 7e3d d9e5 7f3c cffb f1bc
00000020: 4cc8 adbc 6f6c b9bd 2723 18be a727 e03d
00000030: 5192 ef3e 733d 673e fc38 713e 6a47 cc3e
00000040: c4a1 a13e f2d1 07be acad e5bd 62b3 55bc
00000050: ea63 b23c 20c9 6fbb 0f0c 003c 073d dc3c
00000060: 5b64 7e3d b2f3 003c d363 c03c 9246 0e3d
00000070: e534 ab3a 89b8 e93c 83e7 77bb 5c8f 9a3b
00000080: 48c4 9a3d fb5f a438 3ae2 01bd 6d38 58bd
00000090: 9958 37be c95e 00bf dc22 e4be b68b 67be
000000a0: 1c8d 063e ee5f 533e cdde 673e 080d 873e
000000b0: ac36 14bd ca97 a2be 518f e7be dfc3 9bbe
000000c0: 2381 23be 14a6 b2bd 0346 50bd b34c 263c
000000d0: 62d0 24bb 3bf8 293c b2cf af3c 37f9 9eba
000000e0: 2b0e 913c 784f 29bc 7ae3 c1bc 888b 813d
000000f0: 16ff 0e3d 68ab a8bc e4a0 88bd e715 b5bc
00000100: df1f a3bd 680d 473c fada 5d3e 4e5b 49bc
00000110: 4fef 96bb 12b5 313e 8eb0 9d3e 3ea6 1a3e
00000120: da79 933d cbc2 303e e7f7 e43d e247 1a3c
00000130: 87ff 41bd 8f9e 22bd 2938 97bd 2517 af3b
00000140: f88a 583c 6b2b 1d3d 3d0d d63c f917 11bc
00000150: 7efd 84bc ef91 17bc 72bc 393c 1ae8 fc3c
00000160: cfa7 363d 8cb8 20bd d3e8 513e 1ae3 893e
00000170: ea26 693e 81c2 f9bc 20a3 94bd f0e2 50bd
00000180: 2e39 1b3d 04e0 973e 9d0e 8c3e 4fdc 5b3e
00000190: 5572 f93d 6997 bc3c 603b b9bd b0a2 2b3e
000001a0: f11a 933e a386 6e3e cad9 2d3d eb46 443b
000001b0: df1f 333d 4f79 ae3c 205b a03c 5511 6d3c
000001c0: e20a 463c 1f3c 08ba 1980 913c 91f0 a33c
000001d0: 1ffe 913b 8baf 00bd 53b7 913e 4b53 383e
000001e0: 272a d63d 5a03 c6bd c208 7ebb 49a2 7f3d
000001f0: 4542 c93d 4486 a53d e765 173e 73cf 323e
00000200: b882 0f3d d330 1abd fcc5 b6bd cfb8 d3bd
00000210: 8dc9 8d3d 278b ca3e 235d f13d a176 a4bd
00000220: 4c98 393d d27f 873c 1f90 5fbc 8af9 423d
00000230: d616 083d 638f ad3c f6c8 c23b 3379 263d
00000240: 0f28 8fbd aae5 8fbd 906e 303e ccc2 293d
00000250: bc0f c4bd 3a5f 6ebd 7eb4 a7bd 5c40 ed3c
00000260: 7f6d 7cbd 6850 303d 01d6 b7bd 5d31 43bd
00000270: 81ae 84bc 7a3f d2bd 4a08 fcbd c222 a4bd
00000280: 4e61 9cbd 74ff 683e 748c 2c3e f0c7 a4bd
00000290: 79b2 a23c 407a 133d 2a94 4e3d 2951 713d
000002a0: 64a5 f53c b070 34bc 19a1 423d 7423 85bc
000002b0: 68d8 3ebd 2880 b9bd 9d87 043e 297b 4f3d
000002c0: 3ceb c93d 91d2 993d 1938 793d ef3c 8cbc
000002d0: df05 2b3c 2703 fb3c a120 8cbd f09e 81bd
000002e0: b145 debd 72f5 7b3d 9f5b 853d 5c82 453d
000002f0: 3f7c a8bc 915e 3a3e 62be 003e 1f53 89bd
00000300: db57 ec3b c1e0 043d c0af 843b 613a 80bc
00000310: f637 0cbc 693d 8fbc 846f 043d e159 253d
00000320: a2ba 08bd e7b0 8cbc ff95 b63d 06bf 2b3e
00000330: 26a7 003e a6f7 b1bc d34f abbd 1ef0 833d
00000340: a641 55bd b6d0 58bd 9bca 1d3d ddde 503c
00000350: 858f 21bd 031e 873d d28f 07bc 51ea ff3c
00000360: e5f0 3a3d e46a 803b 6e26 e03d c09a 9a3d
00000370: 9745 4a3d 9cfa d53b 3ecc 9d3b 5832 9bbc
00000380: 2182 d9bc 7a1e fa3c af1a 153d 16f0 473d
00000390: 5cea 31bd 8026 7dbc 7150 fc3d 5f26 863e
000003a0: fad9 cb3b bd1d 063d 883d a0bd a719 05bd
000003b0: 2c5e 6b3c 5ba3 17bc 8ab8 14bc b013 1c3d
000003c0: 6764 55bd 282c 3fbd eb48 84bd 252e 64bd
000003d0: ec95 843d 7dbb b43c eae9 9e3d 9321 513d
000003e0: 567d 273d a890 733c be9c e83c eac3 7bba
000003f0: 04d0 253c a481 65bc 57c0 a83d 4ee5 253d

model.1.bias f4 [256]
-0.020950867 0.0090326555 0.10925925 -0.053574547 -0.03597804 -0.05656009 -0.0014492042 0.01653699
-0.08782247 -0.039533295 -0.042246673 0.008987936 -0.04110426 -0.019028848 -0.0513132 -0.02358125
-0.020376561 -0.004700545 0.01482035 0.016005384 -0.003556016 -0.0041227927 -0.0013098074 0.012809428
-0.0728588 -0.0004949542 -0.06497727 -0.03409541 0.010195802 -0.027311184 -0.059415594 -0.063147664
-0.06963777 -0.049654603 -0.021058826 -0.027080296 0.013404228 -0.10882036 -0.045800827 -0.03911898
-0.03654302 -0.042566486 0.0103715155 -0.07005685 -0.06389377 -0.06870858 -0.041481324 -0.008725168
-0.013970157 0.060685456 -0.03478768 -0.052779227 -0.053143434 -0.03504871 0.085417174 -0.034356788
0.01656325 -0.018691247 -0.03616755 0.03494999 -0.06550263 -0.07130496 -0.01506083 -0.018742787
-0.04709271 -0.019949606 -0.0856601 -0.027650768 -0.04004706 -0.040148385 -0.043511048 0.008802973
-0.05256381 -0.04252944 -0.04591346 -0.015308109 0.0083923675 -0.05153527 -0.09121023 -0.052080546
0.005945036 -0.030012192 -0.011499572 -0.014276603 -0.024914466 -0.05587231 -0.029078694 -0.027980298
-0.023767913 -0.060228836 0.038641706 -0.044270907 -0.0023805886 -0.03991918 -0.05872281 -0.00090341084
-0.10101132 -0.042135295 0.020664223 -0.06547401 -0.06854266 -0.029801482 0.014783802 -0.05298502
0.018166855 -0.034088206 -0.06137778 -0.053950336 -0.053908974 -0.040437672 -0.026443396 0.047681395
0.03104707 -0.02000347 -0.015767422 -0.010471857 -0.014238812 -0.03159387 -0.03458709 -0.017803276
-0.03852046 -0.013055988 -0.048305217 -0.04874072 -0.023350243 -0.030932322 0.028470824 -0.049844492
-0.060811907 -0.028817456 0.018634245 -0.033106953 -0.026501058 0.10111406 -0.034347672 -0.021038923
-0.041738298 -0.07109534 -0.04536872 -0.030811938 -0.02824943 0.024685837 -0.041101977 -0.013556239
-0.0047448655 0.009546591 -0.034158714 -0.026228758 0.0031753227 -0.024509706 -0.029352076 -0.025301479
-0.027466668 -0.03621967 0.015976058 -0.08131203 -0.08120478 -0.043953348 -0.083070725 -0.035723567
-0.06622671 -0.0677929 -0.035632357 0.04978397 -0.011672722 0.017011078 -0.049412686 -0.037403405
-0.041450884 0.023262393 -0.039409325 -0.011978978 -0.0042265733 -0.039667558 -0.04649998 -0.102866285
-0.0671685 -0.0023171625 0.002360677 -0.019499961 0.019144017 -0.022903653 0.012168199 -0.029108826
-0.011840796 0.052404575 -0.007239603 0.0016883649 0.002032594 -0.05494388 -0.035135794 0.04315052
-0.05113021 -0.024820575 -0.01970189 -0.0203331 -0.003337816 0.02292662 -0.015448704 -0.011472652
-0.0011250156 -0.02891909 -0.021190794 -0.030712724 -0.016453939 -0.0467753 -0.029698523 -0.09641606
-0.03895658 -0.0016431535 -0.07208732 -0.04286857 -0.066060394 0.007980109 0.019714892 -0.05057933
-0.022217313 -0.09344657 0.007044057 -0.048156768 -0.0057949317 -0.05600495 -0.03048623 -0.053544477
-0.016800238 -0.057568528 -0.014785279 0.02157054 0.019022977 -0.04630394 -0.028502123 -0.05758914
-0.03966667 -0.011949284 0.0026745182 -0.042796627 -0.08057794 -0.027475419 0.068156205 -0.027233772
-0.05879168 -0.075342365 -0.06397517 -0.08847465 -0.036339764 0.033356924 0.008852701 -0.035715
-0.06119853 -0.06301525 -0.05516609 -0.0672461 0.07064419 0.009061671 -0.032401063 -0.049192928
00000000: 27a1 abbc b4fd 133c 50c3 df3d fc70 5bbd
00000010: b65d 13bd 8eab 67bd 39f3 bdba 9578 873c
00000020: 44dc b3bd aaed 21bd d90a 2dbd 2342 133c
00000030: f15c 28bd 63e2 9bbc ca2d 52bd 772d c1bc
00000040: bfec a6bc 0807 9abb 0ed1 723c b91d 833c
00000050: 0c0c 69bb 7e18 87bb d8ad abba a3de 513c
00000060: ff36 95bd d0bf 01ba ce12 85bd a1a7 0bbd
00000070: 4b0c 273c b4bb dfbc c45d 73bd 9053 81bd
00000080: 3f9e 8ebd a062 4bbd 8f83 acbc 7fd7 ddbc
00000090: 689d 5b3c 35dd debd a699 3bbd 393b 20bd
000000a0: 22ae 15bd 325a 2ebd 4aed 293c f779 8fbd
000000b0: bdda 82bd 16b7 8cbd 52e8 29bd 02f4 0ebc
000000c0: 16e3 64bc 5091 783d 877d 0ebd 082f 58bd
000000d0: eeac 59bd 3c8f 0fbd 33ef ae3d b4b9 0cbd
000000e0: a7af 873c 631e 99bc 6d24 14bd b927 0f3d
000000f0: 3e26 86bd 5608 92bd b3c1 76bc 798a 99bc
00000100: 49e4 40bd 5b6d a3bc 906e afbd dd83 e2bc
00000110: 6308 24bd a272 24bd a438 32bd 583a 103c
00000120: 264d 57bd 5a33 2ebd c10f 3cbd ddce 7abc
00000130: 2480 093c a616 53bd 6ecc babd 6952 55bd
00000140: 94ce c23b 21dc f5bc b368 3cbc 6ae8 69bc
00000150: 6c19 ccbc 5dda 64bd 7136 eebc f036 e5bc
00000160: edb4 c2bc 83b2 76bd c446 1e3d 6955 35bd
00000170: a603 1cbb 4b82 23bd 5487 70bd e0d2 6cba
00000180: 06df cebd 0f96 2cbd 0448 a93c 3d17 86bd
00000190: 1860 8cbd 3d22 f4bc c337 723c d206 59bd
000001a0: a8d2 943c 13a0 0bbd 4467 7bbd 07fb 5cbd
000001b0: a8cf 5cbd f9a1 25bd d29f d8bc 914d 433d
000001c0: 6d56 fe3c 51de a3bc ae2a 81bc 2792 2bbc
000001d0: e849 69bc 9368 01bd 31ab 0dbd 2dd8 91bc
000001e0: a1c7 1dbd c8e8 55bc b1db 45bd 59a4 47bd
000001f0: 0249 bfbc c865 fdbc a53b e93c bd29 4cbd
00000200: e815 79bd 9612 ecbc d8a6 983c 289b 07bd
00000210: bf18 d9bc e314 cf3d 25b0 0cbd d259 acbc
00000220: c7f5 2abd 6f9a 91bd 8dd4 39bd 5169 fcbc
00000230: 596b e7bc f439 ca3c 8c5a 28bd fd1a 5ebc
00000240: d17a 9bbb 4e69 1c3c 02ea 0bbd b1dd d6bc
00000250: 1319 503b 94c8 c8bc c473 f0bc 0c45 cfbc
00000260: c701 e1bc 145b 14bd 39e0 823c ec86 a6bd
00000270: b14e a6bd 6d08 34bd fc20 aabd e052 12bd
00000280: dfa1 87bd 01d7 8abd 3cf3 11bd 47ea 4b3d
00000290: f23e 3fbc d15a 8b3c f564 4abd 5034 19bd
000002a0: 67c8 29bd c690 be3c ac6b 21bd 7a43 44bc
000002b0: 117f 8abb 737a 22bd c376 3ebd 8fab d2bd
000002c0: a38f 89bd 89db 17bb 97b5 1a3b 62be 9fbc
000002d0: ead3 9c3c 71a0 bbbc 205d 473c a275 eebc
000002e0: e6ff 41bc 2ea6 563d 313a edbb 204c dd3a
000002f0: 4535 053b d50c 61bd 8dea 0fbd 9abe 303d
00000300: e96d 51bd 8554 cbbc dc65 a1bc 9a91 a6bc
00000310: 43bf 5abb 9bd0 bb3c 901c 7dbc caf7 3bbc
00000320: 4275 93ba bae7 ecbc 5198 adbc 4099 fbbc
00000330: 69ca 86bc 7597 3fbd 514a f3bc c975 c5bd
00000340: ef90 1fbd 155f d7ba 84a2 93bd f496 2fbd
00000350: ac4a 87bd 01bf 023c 2081 a13c 462c 4fbd
00000360: 1501 b6bc ea60 bfbd d5d1 e63b 0840 45bd
00000370: 69e3 bdbb 7265 65bd 42be f9bc 7451 5bbd
00000380: a7a0 89bc facc 6bbd f43d 72bc b3b4 b03c
00000390: 13d6 9b3c 33a9 3dbd 497d e9bc 97e2 6bbd
000003a0: 8579 22bd eec6 43bc f846 2f3b 844b 2fbd
000003b0: 0c06 a5bd 2114 e1bc 7b95 8b3d 5c19 dfbc
000003c0: 8bcf 70bd 194d 9abd 6a05 83bd 3332 b5bd
000003d0: 01d9 14bd 45a1 083d eb0a 113c e449 12bd
000003e0: 4fab 7abd 240e 81bd d7f5 61bd 53b8 89bd
000003f0: e7ad 903d 6777 143c fab6 04bd 867e 49bd

model.3.weight f4 [128, 256]
-0.09618303 0.11681056 -0.23565872 0.09251675 0.017377546 0.04148667 -0.051571846 -0.19438748
0.03659063 -0.11000553 -0.00259076 -0.05841021 -0.017762069 0.079554126 -0.11017372 -0.064799294
-0.058958318 -0.04615402 -0.14827144 -0.039680667 0.052926004 0.16286483 0.031854667 -0.04819119
-0.03167519 -0.013288119 -0.09052977 -0.043444615 -0.082418874 0.22573657 -0.037277948 0.09928299
-0.0034137752 -0.05511401 0.0066837394 0.1723935 -0.1144534 -0.017181767 0.009614653 -0.09293579
0.11654022 -0.00644448 -0.19003965 -0.107084595 0.0071523814 -0.0016421276 -0.034236897 -0.060143296
-0.04661764 -0.10615654 -0.008216613 0.09561296 0.040156685 0.03635848 0.0075672255 0.04974425
0.034431837 0.13158303 0.10944544 -0.06974963 0.008457436 -0.04046787 0.0027587363 -0.15279491
-0.038479146 0.027462007 0.08346853 0.10321499 -0.18769129 0.006349109 0.025451124 -0.037138935
-0.18644123 0.118070066 -0.22599363 -0.10177626 -0.13177544 -0.1249981 0.067552395 -0.14206073
0.05950746 0.019795042 0.091300376 -0.033140592 -0.025387153 -0.007998315 -0.06621411 -0.05368135
0.058047634 0.0016378185 -0.09612727 0.081018135 -0.04477907 0.14144076 -0.03280085 -0.011668323
0.03870004 0.06202008 0.07780621 -0.026358271 0.01621759 -0.022661623 0.20608422 -0.025070826
0.1043376 -0.0025897005 0.0032526099 0.081832625 0.052774444 -0.010850035 0.088603534 0.046446215
0.2779335 0.0597054 0.06450922 0.054232866 -0.05071646 -0.03169214 -0.04072479 0.030915303
0.028773505 -0.086748235 -0.017822063 -0.048926882 0.051694244 -0.18113594 0.082867764 0.044568837
0.045900658 0.003715598 0.114480525 0.085019805 -0.2238664 -0.06519246 -0.058303125 0.082390346
-0.12089344 0.045877893 0.06447554 -0.07249951 0.050196465 0.034210242 0.03469767 -0.019261895
-0.17758657 -0.16321962 -0.0019277846 -0.18213779 0.12065581 0.035899103 0.029434822 0.023624687
0.05386235 -0.04414472 -0.0050778366 0.16453739 0.02337263 -0.21025941 -0.031329773 0.020244014
-0.18326789 -0.02342291 0.03197931 -0.07682471 -0.25503722 0.034086242 0.051340405 -0.018168064
-0.09092963 -0.105737075 0.08332479 0.061691493 -0.057789925 0.057029117 0.007425512 -0.066695064
0.017798 0.0031681138 0.14448093 0.018191207 0.020813925 0.19665012 -0.047593698 0.1305374
0.036036428 -0.048312902 -0.13343973 -0.15615374 -0.15769884 0.025583336 0.19801767 0.05122185
-0.012672524 -0.17839935 -0.09067125 0.18312022 -0.14276715 -0.18658443 0.086298876 0.014842442
-0.05075255 0.056957025 -0.02679222 0.06551455 -0.056702226 0.048073374 0.13153434 -0.042065043
-0.0042168163 0.1137198 0.010912267 -0.07689316 -0.14464454 -0.22609983 0.043967154 -0.0483857
0.096324444 0.100653164 -0.24812695 0.12783349 -0.01677098 0.075035185 -0.16087049 0.025481803
0.045462675 0.0013094952 -0.07016868 -0.0150369555 -0.116681784 0.010144447 -0.011032912 0.008932185
0.23690768 0.10671198 0.07855106 0.13744651 -0.017169373 0.11804441 -0.04502141 0.0811496
-0.22682035 0.026465997 -0.006780054 0.054748498 0.017259378 -0.012272152 -0.02890537 0.073685564
-0.034701895 0.05313997 -0.078485265 0.061874103 -0.17641717 -0.08952462 0.085703656 -0.04322838
00000000: 9cfb c4bd 603a ef3d 8550 71be 6c79 bd3d
00000010: 5b5b 8e3c eded 293d 003d 53bd 830d 47be
00000020: 0ee0 153d 944a e1bd bdc9 29bb 8b3f 6fbd
00000030: c281 91bc 46ed a23d c2a2 e1bd 7eb5 84bd
00000040: 477e 71bd ff0b 3dbd 78d4 17be 3288 22bd
00000050: f0c8 583d 0ac6 263e 0a7a 023d 2064 45bd
00000060: d8bd 01bd 69b6 59bc ac67 b9bd fbf2 31bd
00000070: 3acb a8bd 7d27 673e c3b0 18bd e154 cb3d
00000080: a5b9 5fbb 3abf 61bd 4503 db3b ec87 303e
00000090: 8b66 eabd c7c0 8cbc c786 1d3c 1f55 bebd
000000a0: a4ac ee3d 372c d3bb c199 42be 2b4f dbbd
000000b0: 865e ea3b a93c d7ba fd3b 0cbd d158 76bd
000000c0: 23f2 3ebd 9a68 d9bd f99e 06bc bad0 c33d
000000d0: 567b 243d a1ec 143d 7df6 f73b a0c0 4b3d
000000e0: 6608 0d3d b4bd 063e ee24 e03d e5d8 8ebd
000000f0: 0f91 0a3c a3c1 25bd eacb 343b 4576 1cbe
00000100: 4f9c 1dbd 01f8 e03c 8cf1 aa3d 6162 d33d
00000110: 2532 40be 300c d03b e07e d03c ff1e 18bd
00000120: 73ea 3ebe b8ce f13d e06a 67be 1270 d0bd
00000130: 24f0 06be 01ff ffbd e958 8a3d 5e78 11be
00000140: 18be 733d 3629 a23c b1fb ba3d 6ebe 07bd
00000150: b8f8 cfbc 5d0b 03bc 439b 87bd fae0 5bbd
00000160: 5bc3 6d3d 12ac d63a 60de c4bd d6ec a53d
00000170: 426a 37bd d9d5 103e 2f5a 06bd 7e2c 3fbc
00000180: ef83 1e3d c408 7e3d dd58 9f3d 4ded d7bc
00000190: c0da 843c dea4 b9bc be07 533e 5561 cdbc
000001a0: f4ae d53d f7b7 29bb bd29 553b dd97 a73d
000001b0: 042a 583d 58c4 31bc c575 b53d 633e 3e3d
000001c0: 4d4d 8e3e a68d 743d 691d 843d 4823 5e3d
000001d0: 10bc 4fbd 9ecf 01bd 0acf 26bd 1742 fd3c
000001e0: 6ab6 eb3c 0fa9 b1bd 93ff 91bc 8e67 48bd
000001f0: 58bd 533d b37b 39be 93b6 a93d d08d 363d
00000200: 5402 3c3d 6481 733b c474 ea3d dd1e ae3d
00000210: 3c3d 65be a083 85bd 42cf 6ebd 45bc a83d
00000220: fb96 f7bd 75ea 3b3d c00b 843d a07a 94bd
00000230: cf9a 4d3d 0a20 0c3d 251f 0e3d 1fcb 9dbc
00000240: 41d9 35be 0b23 27be b8ad fcba 5482 3abe
00000250: 651a f73d f00a 133d 4c21 f13c 8f88 c13c
00000260: c49e 5c3d 18d1 34bd fb63 a6bb 7d7c 283e
00000270: f577 bf3c 3e4e 57be a653 00bd c6d6 a53c
00000280: 94aa 3bbe 67e1 bfbc bdfc 023d 4656 9dbd
00000290: 3d94 82be 049e 0b3d 514a 523d 31d5 94bc
000002a0: 5039 babd ae8c d8bd 30a6 aa3d 38b0 7c3d
000002b0: 21b5 6cbd 5d97 693d b651 f33b 6c97 88bd
000002c0: 1ccd 913c 21a0 4f3b cff2 133e ba05 953c
000002d0: f781 aa3c a65e 493e 9cf1 42bd 99ab 053e
000002e0: ef9a 133d c0e3 45bd 6da4 08be c4e6 1fbe
000002f0: ce7b 21be 2594 d13c 25c5 4a3e 01ce 513d
00000300: 6ba0 4fbc 52ae 36be d9b1 b9bd de83 3b3e
00000310: 8d31 12be fd0f 3fbe 77bd b03d b72d 733c
00000320: e8e1 4fbd c54b 693d 5c7b dbbc 7e2c 863d
00000330: 9840 68bd 96e8 443d f0b0 063e 654c 2cbd
00000340: 382d 8abb ede5 e83d 5dc9 323c 297a 9dbd
00000350: b31d 14be b786 67be e716 343d 1530 46bd
00000360: c045 c53d 3f23 ce3d fe14 7ebe c8e6 023e
00000370: 4b63 89bc 0cac 993d 3cbb 24be 37bf d03c
00000380: 1237 3a3d 5ea3 ab3a 99b4 8fbd 905d 76bc
00000390: dcf6 eebd e534 263c 63c3 34bc 4d58 123c
000003a0: ed97 723e d08b da3d 61df a03d c7be 0c3e
000003b0: c9a6 8cbc 45c1 f13d 5f68 38bd c331 a63d
000003c0: 9843 68be 38cf d83c 372b debb f63f 603d
000003d0: 8a63 8d3c 2311 49bc f4ca ecbc 75e8 963d
000003e0: 9323 0ebd 4ca9 593d e2bc a0bd b36f 7d3d
000003f0: b4a6 34be af58 b7bd 6685 af3d 3e10 31bd

model.3.bias f4 [128]
0.087250136 0.035778925 -0.035484634 -0.013976492 -0.05009391 -0.05067699 0.098887414 -0.045369998
0.024296947 0.025980392 0.012175683 0.019415645 0.119801775 -0.055285376 0.1608361 -0.010768303
-0.02139812 0.038345374 -0.021012204 0.05525626 0.08720878 0.03294602 0.045771096 -0.041141473
0.08961541 -1.3298326e-05 0.10199763 -0.068609454 0.07438182 0.041874528 -0.019343266 -0.1134378
0.040098846 0.0030104993 -0.038843073 -0.01943208 0.10729926 0.05037341 0.07204715 0.044335175
0.07954251 0.090895236 -0.08829241 0.061661292 0.13773055 -0.023578929 0.057932656 0.029700449
-0.0113070095 0.0036588034 -0.063536815 -0.026647871 -0.084388874 -0.023074782 -0.026308954 -0.06996523
-0.07412436 0.037367508 0.110675365 0.07577687 0.11583161 0.11207766 0.055754773 -0.12160763
-0.046529494 0.03385817 -0.022735411 0.039475344 0.1427655 0.07578773 -0.09457648 0.13369526
-0.006837453 -0.017425988 0.015214972 0.14414138 -0.04602601 -0.067242905 -0.04424889 0.007885035
0.05742998 0.047745727 0.114825726 0.03353286 0.065942965 -0.06563685 0.08966324 0.12011322
-0.11888543 0.034685206 0.1148454 0.11564064 0.027230438 0.16495723 0.0077441894 -0.06631552
0.007360408 -0.011061319 -0.05699041 0.043067805 0.0769463 -0.07886827 -0.083042525 -0.06821841
0.016322978 -0.072769955 0.075120136 -0.09625335 0.12103749 0.05968803 0.025015185 -0.08431827
-0.012907901 -0.070193894 0.023063632 0.08635241 0.0531025 -0.075170144 -0.07394816 0.008088286
0.08579314 0.12675732 0.115897045 -0.028693115 -0.062398072 0.03564599 0.06996917 -0.07055423
00000000: 33b0 b23d ec8c 123d 5658 11bd a8fd 64bc
00000010: 462f 4dbd ad92 4fbd 7c85 ca3d e4d5 39bd
00000020: 640a c73c d5d4 d43c 847c 473c 8f0d 9f3c
00000030: a25a f53d eb72 62bd 38b2 243e 896d 30bc
00000040: 1c4b afbc 0a10 1d3d c921 acbc 6354 623d
00000050: 849a b23d 68f2 063d 797a 3b3d f683 28bd
00000060: 4988 b73d e01b 5fb7 22e4 d03d 1d83 8cbd
00000070: 7f55 983d a084 2b3d c575 9ebc 1452 e8bd
00000080: b03e 243d cc4b 453b ea19 1fbd 0730 9fbc
00000090: b7bf db3d 5954 4e3d 758d 933d cd98 353d
000000a0: 2fe7 a23d 4827 ba3d a7d2 b4bd 8d90 7c3d
000000b0: 3d09 0d3e 9928 c1bc cb4a 6d3d 5b4e f33c
000000c0: 0941 39bc 89c8 6f3b 971f 82bd a34c dabc
000000d0: 13d4 acbd 5307 bdbc e085 d7bc ee49 8fbd
000000e0: 83ce 97bd ac0e 193d c4a9 e23d e730 9b3d
000000f0: 2039 ed3d f988 e53d 1e5f 643d 6c0d f9bd
00000100: b695 3ebd ddae 0a3d 9d3f babc e6b0 213d
00000110: 1f31 123e 9936 9b3d 50b1 c1bd 69e7 083e
00000120: b70c e0bb f2c0 8ebc 3848 793c cc99 133e
00000130: c585 3cbd a6b6 89bd 533e 35bd 3c30 013c
00000140: b33b 6b3d 0691 433d c029 eb3d c159 093d
00000150: 1b0d 873d 9d6c 86bd 5ca1 b73d ebfd f53d
00000160: 347a f3bd 1312 0e3d 1134 eb3d 00d5 ec3d
00000170: 5e12 df3c 8cea 283e f8c2 fd3b 6ed0 87bd
00000180: 942f f13b 893a 35bc c76e 69bd de67 303d
00000190: 0696 9d3d b085 a1bd 3312 aabd 18b6 8bbd
000001a0: c4b7 853c 6a08 95bd 96d8 993d 7a20 c5bd
000001b0: 81e2 f73d 707b 743d a5ec cc3c 0faf acbd
000001c0: a97b 53bc d1c1 8fbd f1ef bc3c 88d9 b03d
000001d0: 0282 593d cef2 99bd 2272 97bd bb84 043c
000001e0: 50b4 af3d accc 013e 6e5b ed3d d30d ebbc
000001f0: 1f95 7fbd 8801 123d ff4b 8f3d bc7e 90bd

model.5.weight f4 [10, 128]
-0.05379225 0.059957426 0.17503603 -0.06940155 -0.0111272335 -0.1530258 0.023279713 -0.014824703
0.0755475 -0.10778488 -0.14059289 0.060991738 -0.00028897967 0.05051873 -0.021355523 0.04968238
-0.085501574 -0.08803815 -0.23209491 -0.10440088 0.1512557 0.06564938 -0.1604785 -0.1614859
-0.21883595 0.11136352 -0.128962 -0.11311213 0.011623832 0.026370233 -0.2013472 0.07047356
0.0747505 0.055755876 0.10731352 -0.24131612 -0.27207586 0.070201345 0.04610205 -0.03715162
0.053119704 0.09036968 -0.030159907 0.024524081 -0.1785342 -0.24182293 0.004023498 -0.43596226
-0.013883381 0.08607443 -0.059847794 -0.122732565 -0.0016187237 -0.044715203 -0.13121024 -0.08521322
-0.06983548 -0.21201889 -0.086864 0.026644055 -0.063516304 0.062304214 -0.055275466 -0.08330543
0.07064837 -0.27984658 0.11997009 -0.02238005 -0.070574105 0.04798508 -0.108491905 -0.094138294
0.032108523 0.10097961 -0.14669038 -0.26153037 -0.13258128 -0.072993465 -0.15081362 0.07182783
0.08698528 -0.10312178 -0.2763406 0.094938405 -0.06287522 0.065007 0.02844892 -0.13218394
0.09570311 -0.015676185 -0.058876343 -0.12579402 -0.08952258 -0.013707535 0.11750014 0.08155382
0.07002043 -0.08288188 0.05891935 0.11734963 0.013007324 -0.070185624 -0.025860196 -0.07701915
-0.29431394 0.032827247 -0.126943 -0.1092871 0.0054024393 0.055482652 0.026992733 0.09693017
0.028522104 0.0781967 0.1426529 -0.040178824 0.034084816 -0.14284523 -0.021810677 -0.016005376
0.076891996 -0.014358694 0.10247146 0.13066082 -0.1613435 -0.4201689 0.007240265 0.025192562
-0.065502144 0.028359437 0.015377675 0.040635865 0.04256509 -0.04622261 -0.2336132 -0.15620354
0.060232695 0.04286092 -0.09839275 -0.2144296 -0.0065130605 -0.20691417 -0.27089182 -0.23450604
-0.39912045 -0.18424073 -0.29644158 -0.14365129 -0.21327569 -0.059910808 0.03987687 -0.43466288
-0.030855896 -0.02464152 -0.29478368 0.08917567 -0.19082361 -0.26022616 0.034019783 -0.012791508
-0.097875744 -0.35501415 -0.018116463 -0.09564003 0.26049912 -0.15036212 -0.09177988 0.06341949
-0.2168278 0.05802455 0.022494644 -0.076795876 -0.11514796 0.30533996 0.071156554 -0.20024101
-0.078242116 0.100092866 0.03079486 0.0032203307 -0.055732988 0.014149114 -0.20577842 -0.035271216
-0.0018534994 0.08709715 -0.06104172 -0.094345525 -0.2610239 0.062715776 0.053856533 0.18344998
0.029459005 -0.09605634 -0.31515765 -0.01502358 -0.21103449 -0.031487662 -0.057780173 -0.0568256
-0.15917239 0.117711425 -0.027175069 -0.3285319 0.19670756 -0.050212163 0.06171208 -0.35715622
-0.1519572 -0.23155281 -0.075929634 -0.10096903 0.1282301 0.032869384 0.042583846 -0.11601043
0.07840367 -0.4179898 0.09803756 0.19716096 -0.15757151 -0.28843004 0.05816198 -0.11292108
0.004356672 -0.15796028 0.019749464 -0.28748223 -0.24051286 -0.019149477 0.10312472 -0.034694694
-0.34092227 -0.032817036 0.2540624 0.07025316 -0.31085628 0.0716539 -0.18611924 -0.02484806
0.086799085 0.096281365 -0.17770167 -0.034042854 0.10149183 -0.03965273 -0.1547924 -0.05787959
-0.12657122 -0.22394167 -0.11187351 0.1954989 -0.22723892 -0.036415007 0.04239036 -0.0036682652
00000000: 4355 5cbd eb95 753d a53c 333e 6622 8ebd
00000010: 004f 36bc ccb2 1cbe 19b5 be3c 50e3 72bc
00000020: a6b8 9a3d 52be dcbd 95f7 0fbe 79d2 793d
00000030: 3282 97b9 baec 4e3d c7f1 aebc c07f 4b3d
00000040: 731b afbd 584d b4bd 4aaa 6dbe 21d0 d5bd
00000050: c6e2 1a3e 2f73 863d 7a54 24be 8f5c 25be
00000060: 8816 60be 8f12 e43d 9d0e 04be 55a7 e7bd
00000070: e371 3e3c 6306 d83c f62d 4ebe 7154 903d
00000080: ca16 993d 4660 643d 31c7 db3d 931b 77be
00000090: 874d 8bbe b9c5 8f3d 81d5 3c3d 4c2c 18bd
000000a0: 0c94 593d bd13 b93d e911 f7bc bae6 c83c
000000b0: abd1 36be 6ea0 77be 8cd7 833b 7236 dfbe
000000c0: 1f77 63bc ca47 b03d f622 75bd 365b fbbd
000000d0: 5b2b d4ba 4a27 37bd fa5b 06be 4584 aebd
000000e0: e705 8fbd 7b1b 59be c1e5 b1bd a244 da3c
000000f0: d614 82bd b432 7f3d 8768 62bd 0a9c aabd
00000100: 18b0 903d 0d48 8fbe e1b2 f53d 5e56 b7bc
00000110: 2889 90bd 018c 443d 0131 debd 94cb c0bd
00000120: 3a84 033d 66ce ce3d 0136 16be 4fe7 85be
00000130: 63c3 07be 997d 95bd e36e 1abe 781a 933d
00000140: 5725 b23d 8331 d3bd 847c 8dbe 116f c23d
00000150: b9c4 80bd 6422 853d b60d e93c 3a5b 07be
00000160: feff c33d 586b 80bc 5228 71bd 26d0 00be
00000170: 9d57 b7bd 9295 60bc eaa3 f03d b005 a73d
00000180: df66 8f3d fabd a9bd 6b55 713d 0155 f03d
00000190: ac1c 553c 7bbd 8fbd c3d8 d3bc 37bc 9dbd
000001a0: 51b0 96be dd75 063d 59fd 01be ead1 dfbd
000001b0: f206 b13b c741 633d dd1f dd3c 5383 c63d
000001c0: 30a7 e93c 9725 a03d 9a13 123e 8d92 24bd
000001d0: 859c 0b3d 0546 12be 4eac b2bc b51d 83bc
000001e0: 8d79 9d3d ba40 6bbc 8fdc d13d f3cb 053e
000001f0: 3b37 25be 6120 d7be bf3f ed3b a260 ce3c
00000200: fd25 86bd 0d52 e83c a5f2 7b3c cb71 263d
00000210: bb58 2e3d eb53 3dbd 4c38 6fbe d2f3 1fbe
00000220: 8fb6 763d ef8e 2f3d 2382 c9bd 6f93 5bbe
00000230: 836b d5bb 4fe1 53be 55b2 8abe 5a22 70be
00000240: 8459 ccbe 9aa9 3cbe 31c7 97be 5319 13be
00000250: f164 5abe 0965 75bd ee55 233d 228c debe
00000260: 81c5 fcbc 03dd c9bc e3ed 96be bca1 b63d
00000270: 4467 43be 5d3c 85be 5458 0b3d 7993 51bc
00000280: 1473 c8bd 6ac4 b5be fa68 94bc ecde c3bd
00000290: 2460 853e 87f8 19be 17f7 bbbd 14e2 813d
000002a0: 1b08 5ebe 27ab 6d3d b046 b83c 2847 9dbd
000002b0: b2d2 ebbd 8555 9c3e 87ba 913d fb0b 4dbe
000002c0: 673d a0bd 7dfd cc3d 8145 fc3c 2f0c 533b
000002d0: 4648 64bd afd1 673c 94b7 52be 8d78 10bd
000002e0: 1ff1 f2ba fe5f b23d e206 7abd 3a38 c1bd
000002f0: eda4 85be 2171 803d ab98 5c3d 50da 3b3e
00000300: 0354 f13c 30b9 c4bd 585c a1be 7625 76bc
00000310: 6d19 58be 35f9 00bd e7aa 6cbd f6c1 68bd
00000320: 16fe 22be b012 f13d 409e debc 5535 a8be
00000330: b56d 493e 45ab 4dbd cec5 7c3d 2edd b6be
00000340: ab9a 1bbe 2e1c 6dbe ff80 9bbd dac8 cebd
00000350: c04e 033e 0ca2 063d 666c 2e3d e096 edbd
00000360: 1a92 a03d c202 d6be ebc7 c83d 90e4 493e
00000370: 6d5a 21be 1aad 93be 423b 6e3d 2b43 e7bd
00000380: 6ac2 8e3b 57c0 21be a1c9 a13c df30 93be
00000390: 0149 76be 5ddf 9cbc 0e33 d33d 061c 0ebd
000003a0: 5d8d aebe 286b 06bd 7814 823e e4e0 8f3d
000003b0: 8e28 9fbe 48bf 923d 0b96 3ebe 298e cbbc
000003c0: b8c3 b13d 2a2f c53d 6df7 35be 8570 0bbd
000003d0: f3da cf3d e76a 22bd e681 1ebe 2613 6dbd
000003e0: e39b 01be f750 65be f01d e5bd dd30 483e
000003f0: 52b1 68be e727 15bd 84a1 2d3d 4767 70bb

model.5.bias f4 [10]
-0.10450931 -0.04213786 0.08110767 0.023695402 -0.07896276 -0.11150397 0.0042427722 0.07660488
0.15290475 0.022837985
00000000: fa08 d6bd c098 2cbd c71b a63d dc1c c23c
00000010: 3ab7 a1bd 325c e4bd f406 8b3b 05e3 9c3d
00000020: 1093 1c3e ba16 bb3c
